…
owth setting because the TF_FORCE_GPU_ALLOW_GROWTH environment variable is set. Original config value was 0.
3670
Found 3670 files belonging to 5 classes.
Using 2936 files for training.
Found 3670 files belonging to 5 classes.
Using 734 files for validation.
['daisy', 'dandelion', 'roses', 'sunflowers', 'tulips']
(32, 180, 180, 3)
(32,)
0.0 0.9961222
Model: "sequential"
_________________________________________________________________
 Layer (type)                Output Shape              Param #   
=================================================================
 rescaling_1 (Rescaling)     (None, 180, 180, 3)       0         
                                                                 
 conv2d (Conv2D)             (None, 180, 180, 16)      448       
                                                                 
 max_pooling2d (MaxPooling2D  (None, 90, 90, 16)       0         
 )                                                               
                                                                 
 conv2d_1 (Conv2D)           (None, 90, 90, 32)        4640      
                                                                 
 max_pooling2d_1 (MaxPooling  (None, 45, 45, 32)       0         
 2D)                                                             
                                                                 
 conv2d_2 (Conv2D)           (None, 45, 45, 64)        18496     
                                                                 
 max_pooling2d_2 (MaxPooling  (None, 22, 22, 64)       0         
 2D)                                                             
                                                                 
 flatten (Flatten)           (None, 30976)             0         
                                                                 
 dense (Dense)               (None, 128)               3965056   
                                                                 
 dense_1 (Dense)             (None, 5)                 645       
                                                                 
=================================================================
Total params: 3,989,285
Trainable params: 3,989,285
Non-trainable params: 0
_________________________________________________________________
[EXECUTION] [13:17:38] Waiting before running function for 10 seconds.
[EXECUTION] [13:17:48] Sensors started
[STABLE CHECK] [13:17:51] Temperature too high: mean is 41.75, which is greater than 40
…
++++++6++++++ this __dict__ descriptor does not support '_DictWrapper' objects
6-size 48.0
outside_object_size
[EXECUTION] [13:19:19] Result: {'tensorflow.keras.models.Sequential.fit()': {'energy_data': {'cpu': '{"columns":["time_elapsed","en
[EXECUTION] [13:19:19] Data written to file /home/saurabh/method-energy-dataset/dataset/tensorflow_docs/classification/experiment-5.json
Model: "sequential_2"
_________________________________________________________________
 Layer (type)                Output Shape              Param #   
=================================================================
 sequential_1 (Sequential)   (None, 180, 180, 3)       0         
                                                                 
 rescaling_3 (Rescaling)     (None, 180, 180, 3)       0         
                                                                 
 conv2d_6 (Conv2D)           (None, 180, 180, 16)      448       
                                                                 
 max_pooling2d_6 (MaxPooling  (None, 90, 90, 16)       0         
 2D)                                                             
                                                                 
 conv2d_7 (Conv2D)           (None, 90, 90, 32)        4640      
                                                                 
 max_pooling2d_7 (MaxPooling  (None, 45, 45, 32)       0         
 2D)                                                             
                                                                 
 conv2d_8 (Conv2D)           (None, 45, 45, 64)        18496     
                                                                 
 max_pooling2d_8 (MaxPooling  (None, 22, 22, 64)       0         
 2D)                                                             
                                                                 
 dropout (Dropout)           (None, 22, 22, 64)        0         
                                                                 
 flatten_2 (Flatten)         (None, 30976)             0         
                                                                 
 dense_4 (Dense)             (None, 128)               3965056   
                                                                 
 outputs (Dense)             (None, 5)                 645       
                                                                 
=================================================================
Total params: 3,989,285
Trainable params: 3,989,285
Non-trainable params: 0
_________________________________________________________________
[EXECUTION] [13:19:20] Waiting before running function for 10 seconds.
[EXECUTION] [13:19:30] Sensors started
[STABLE CHECK] [13:19:33] Temperature too high: mean is 43, which is greater than 40
…
