…
Epoch: 100, accuracy:0.7103,  binary_crossentropy:0.5331,  loss:0.5331,  val_accuracy:0.6460,  val_binary_crossentropy:0.6110,  val_loss:0.6110,  
....................................................................................................
Epoch: 200, accuracy:0.7816,  binary_crossentropy:0.4366,  loss:0.4366,  val_accuracy:0.6500,  val_binary_crossentropy:0.6826,  val_loss:0.6826,  
....................................................Model: "sequential_3"
_________________________________________________________________
 Layer (type)                Output Shape              Param #   
=================================================================
 dense_18 (Dense)            (None, 512)               14848     
                                                                 
 dense_19 (Dense)            (None, 512)               262656    
                                                                 
 dense_20 (Dense)            (None, 512)               262656    
                                                                 
 dense_21 (Dense)            (None, 512)               262656    
                                                                 
 dense_22 (Dense)            (None, 1)                 513       
                                                                 
=================================================================
Total params: 803,329
Trainable params: 803,329
Non-trainable params: 0
_________________________________________________________________

Epoch: 0, accuracy:0.5104,  binary_crossentropy:0.7777,  loss:0.7777,  val_accuracy:0.5480,  val_binary_crossentropy:0.6807,  val_loss:0.6807,  
…
Epoch: 400, accuracy:0.6920,  binary_crossentropy:0.5663,  loss:0.5929,  val_accuracy:0.6580,  val_binary_crossentropy:0.5836,  val_loss:0.6102,  
............................................./home/saurabh/miniconda3/envs/tf2/lib/python3.9/site-packages/tensorflow_docs/plots/__init__.py:111: UserWarning: Attempt to set non-positive xlim on a log-scaled axis will be ignored.
  plt.xlim(
Model: "sequential_5"
_________________________________________________________________
 Layer (type)                Output Shape              Param #   
=================================================================
 dense_38 (Dense)            (None, 512)               14848     
                                                                 
 dropout (Dropout)           (None, 512)               0         
                                                                 
 dense_39 (Dense)            (None, 512)               262656    
                                                                 
 dropout_1 (Dropout)         (None, 512)               0         
                                                                 
 dense_40 (Dense)            (None, 512)               262656    
                                                                 
 dropout_2 (Dropout)         (None, 512)               0         
                                                                 
 dense_41 (Dense)            (None, 512)               262656    
                                                                 
 dropout_3 (Dropout)         (None, 512)               0         
                                                                 
 dense_42 (Dense)            (None, 1)                 513       
                                                                 
=================================================================
Total params: 803,329
Trainable params: 803,329
Non-trainable params: 0
_________________________________________________________________

Epoch: 0, accuracy:0.4983,  binary_crossentropy:0.7956,  loss:0.7956,  val_accuracy:0.5160,  val_binary_crossentropy:0.6812,  val_loss:0.6812,  
…
