…
Epoch: 100, accuracy:0.7123,  binary_crossentropy:0.5323,  loss:0.5323,  val_accuracy:0.6600,  val_binary_crossentropy:0.6017,  val_loss:0.6017,  
....................................................................................................
Epoch: 200, accuracy:0.7850,  binary_crossentropy:0.4301,  loss:0.4301,  val_accuracy:0.6570,  val_binary_crossentropy:0.6989,  val_loss:0.6989,  
..................................................................Model: "sequential_3"
_________________________________________________________________
 Layer (type)                Output Shape              Param #   
=================================================================
 dense_18 (Dense)            (None, 512)               14848     
                                                                 
 dense_19 (Dense)            (None, 512)               262656    
                                                                 
 dense_20 (Dense)            (None, 512)               262656    
                                                                 
 dense_21 (Dense)            (None, 512)               262656    
                                                                 
 dense_22 (Dense)            (None, 1)                 513       
                                                                 
=================================================================
Total params: 803,329
Trainable params: 803,329
Non-trainable params: 0
_________________________________________________________________

Epoch: 0, accuracy:0.5067,  binary_crossentropy:0.8423,  loss:0.8423,  val_accuracy:0.4790,  val_binary_crossentropy:0.6771,  val_loss:0.6771,  
…
inside_kwarg_size
outside_kwarg_size
inside_object_size
outside_object_size
[EXECUTION] [23:30:50] Result: {'tensorflow.add_n()': {'energy_data': {'cpu': '{"columns":["time_elapsed","energy (J)"],"index":[0,
[EXECUTION] [23:30:50] Data written to file /home/saurabh/method-energy-dataset/dataset/tensorflow_docs/overfit_and_underfit/experiment-1.json
Model: "sequential_5"
_________________________________________________________________
 Layer (type)                Output Shape              Param #   
=================================================================
 dense_38 (Dense)            (None, 512)               14848     
                                                                 
 dropout (Dropout)           (None, 512)               0         
                                                                 
 dense_39 (Dense)            (None, 512)               262656    
                                                                 
 dropout_1 (Dropout)         (None, 512)               0         
                                                                 
 dense_40 (Dense)            (None, 512)               262656    
                                                                 
 dropout_2 (Dropout)         (None, 512)               0         
                                                                 
 dense_41 (Dense)            (None, 512)               262656    
                                                                 
 dropout_3 (Dropout)         (None, 512)               0         
                                                                 
 dense_42 (Dense)            (None, 1)                 513       
                                                                 
=================================================================
Total params: 803,329
Trainable params: 803,329
Non-trainable params: 0
_________________________________________________________________

Epoch: 0, accuracy:0.5178,  binary_crossentropy:0.7901,  loss:0.7901,  val_accuracy:0.4730,  val_binary_crossentropy:0.6841,  val_loss:0.6841,  
…
